…
"text":"<p>\u6ce8\u610f\u5728\u540c\u4e00\u4e2a\u8bbe\u5907\u4e0a</p> Python<pre><code>pip install torchinfo\nfrom torchinfo import summary\nmodel = Model(configs)\nx = torch.randn(batch_size, seq_len, enc_in)\nsummary(model, input_data=x)\n</code></pre> \u8f93\u51fa\uff1a <p> </p>Python<pre><code>==========================================================================================\nLayer (type:depth-idx)                   Output Shape              Param #\n==========================================================================================\nModel                                    [16, 720, 7]              --\n\u251c\u2500RevIN: 1-1                             [16, 96, 7]               14\n\u251c\u2500ChebyKANLayer: 1-2                     [16, 96, 7]               --\n\u2502    \u2514\u2500ChebyKANLinear: 2-1               [1536, 7]                 196\n\u251c\u2500ModuleList: 1-12                       --                        (recursive)\n\u2502    \u2514\u2500block_model: 2-2                  [16, 7, 720]              1,440\n\u2502    \u2502    \u2514\u2500ModuleList: 3-1              --                        488,880\n\u251c\u2500ModuleList: 1-13                       --                        (recursive)\n\u2502    \u2514\u2500dct_channel_block: 2-3            [16, 7, 96]               1\n\u2502    \u2502    \u2514\u2500LayerNorm: 3-2               [16, 7, 96]               192\n\u2502    \u2502    \u2514\u2500Sequential: 3-3              [16, 7, 96]               36,864\n\u2502    \u2502    \u2514\u2500LayerNorm: 3-4               [16, 7, 96]               (recursive)\n\u251c\u2500ModuleList: 1-14                       --                        --\n\u2502    \u2514\u2500AvgPool1d: 2-4                    [16, 7, 48]               --\n\u251c\u2500ModuleList: 1-12                       --                        (recursive)\n\u2502    \u2514\u2500block_model: 2-5                  [16, 7, 360]              720\n\u2502    \u2502    \u2514\u2500ModuleList: 3-5              --                        123,480\n\u251c\u2500ModuleList: 1-13                       --                        (recursive)\n\u2502    \u2514\u2500dct_channel_block: 2-6            [16, 7, 48]               1\n\u2502    \u2502    \u2514\u2500LayerNorm: 3-6               [16, 7, 48]               96\n\u2502    \u2502    \u2514\u2500Sequential: 3-7              [16, 7, 48]               9,216\n\u2502    \u2502    \u2514\u2500LayerNorm: 3-8               [16, 7, 48]               (recursive)\n\u251c\u2500ModuleList: 1-14                       --                        --\n\u2502    \u2514\u2500AvgPool1d: 2-7                    [16, 7, 24]               --\n\u251c\u2500ModuleList: 1-12                       --                        (recursive)\n\u2502    \u2514\u2500block_model: 2-8                  [16, 7, 180]              360\n\u2502    \u2502    \u2514\u2500ModuleList: 3-9              --                        31,500\n\u251c\u2500ModuleList: 1-13                       --                        (recursive)\n\u2502    \u2514\u2500dct_channel_block: 2-9            [16, 7, 24]               1\n\u2502    \u2502    \u2514\u2500LayerNorm: 3-10              [16, 7, 24]               48\n\u2502    \u2502    \u2514\u2500Sequential: 3-11             [16, 7, 24]               2,304\n\u2502    \u2502    \u2514\u2500LayerNorm: 3-12              [16, 7, 24]               (recursive)\n\u251c\u2500ModuleList: 1-14                       --                        --\n\u2502    \u2514\u2500AvgPool1d: 2-10                   [16, 7, 12]               --\n\u251c\u2500ModuleList: 1-12                       --                        (recursive)\n\u2502    \u2514\u2500block_model: 2-11                 [16, 7, 90]               180\n\u2502    \u2502    \u2514\u2500ModuleList: 3-13             --                        8,190\n\u251c\u2500ModuleList: 1-13                       --                        (recursive)\n\u2502    \u2514\u2500dct_channel_block: 2-12           [16, 7, 12]               1\n\u2502    \u2502    \u2514\u2500LayerNorm: 3-14              [16, 7, 12]               24\n\u2502    \u2502    \u2514\u2500Sequential: 3-15             [16, 7, 12]               576\n\u2502    \u2502    \u2514\u2500LayerNorm: 3-16              [16, 7, 12]               (recursive)\n\u251c\u2500ModuleList: 1-14                       --                        --\n\u2502    \u2514\u2500AvgPool1d: 2-13                   [16, 7, 6]                --\n\u251c\u2500ChebyKANLayer: 1-15                    [16, 90, 7]               (recursive)\n\u2502    \u2514\u2500ChebyKANLinear: 2-14              [1440, 7]                 (recursive)\n\u251c\u2500ModuleList: 1-16                       --                        --\n\u2502    \u2514\u2500ICB: 2-15                         [16, 7, 180]              --\n\u2502    \u2502    \u2514\u2500Conv1d: 3-17                 [16, 270, 7]              73,170\n\u2502    \u2502    \u2514\u2500Conv1d: 3-18                 [16, 270, 7]              218,970\n\u2502    \u2502    \u2514\u2500Conv1d: 3-19                 [16, 270, 7]              364,770\n\u2502    \u2502    \u2514\u2500Conv1d: 3-20                 [16, 270, 7]              510,570\n\u2502    \u2502    \u2514\u2500Tanh: 3-21                   [16, 270, 7]              --\n\u2502    \u2502    \u2514\u2500Sigmoid: 3-22                [16, 270, 7]              --\n\u2502    \u2502    \u2514\u2500ReLU: 3-23                   [16, 270, 7]              --\n\u2502    \u2502    \u2514\u2500Tanh: 3-24                   [16, 270, 7]              --\n\u2502    \u2502    \u2514\u2500Sigmoid: 3-25                [16, 270, 7]              --\n\u2502    \u2502    \u2514\u2500ReLU: 3-26                   [16, 270, 7]              --\n\u2502    \u2502    \u2514\u2500Tanh: 3-27                   [16, 270, 7]              --\n\u2502    \u2502    \u2514\u2500Sigmoid: 3-28                [16, 270, 7]              --\n\u2502    \u2502    \u2514\u2500ReLU: 3-29                   [16, 270, 7]              --\n\u2502    \u2502    \u2514\u2500Tanh: 3-30                   [16, 270, 7]              --\n\u2502    \u2502    \u2514\u2500Sigmoid: 3-31                [16, 270, 7]              --\n\u2502    \u2502    \u2514\u2500ReLU: 3-32                   [16, 270, 7]              --\n\u2502    \u2502    \u2514\u2500Dropout: 3-33                [16, 1080, 7]             --\n\u2502    \u2502    \u2514\u2500Conv1d: 3-34                 [16, 180, 7]              194,580\n\u2502    \u2514\u2500ICB: 2-16                         [16, 7, 360]              --\n\u2502    \u2502    \u2514\u2500Conv1d: 3-35                 [16, 540, 7]              292,140\n\u2502    \u2502    \u2514\u2500Conv1d: 3-36                 [16, 540, 7]              875,340\n\u2502    \u2502    \u2514\u2500Conv1d: 3-37                 [16, 540, 7]              1,458,540\n\u2502    \u2502    \u2514\u2500Conv1d: 3-38                 [16, 540, 7]              2,041,740\n\u2502    \u2502    \u2514\u2500Tanh: 3-39                   [16, 540, 7]              --\n\u2502    \u2502    \u2514\u2500Sigmoid: 3-40                [16, 540, 7]              --\n\u2502    \u2502    \u2514\u2500ReLU: 3-41                   [16, 540, 7]              --\n\u2502    \u2502    \u2514\u2500Tanh: 3-42                   [16, 540, 7]              --\n\u2502    \u2502    \u2514\u2500Sigmoid: 3-43                [16, 540, 7]              --\n\u2502    \u2502    \u2514\u2500ReLU: 3-44                   [16, 540, 7]              --\n\u2502    \u2502    \u2514\u2500Tanh: 3-45                   [16, 540, 7]              --\n\u2502    \u2502    \u2514\u2500Sigmoid: 3-46                [16, 540, 7]              --\n\u2502    \u2502    \u2514\u2500ReLU: 3-47                   [16, 540, 7]              --\n\u2502    \u2502    \u2514\u2500Tanh: 3-48                   [16, 540, 7]              --\n\u2502    \u2502    \u2514\u2500Sigmoid: 3-49                [16, 540, 7]              --\n\u2502    \u2502    \u2514\u2500ReLU: 3-50                   [16, 540, 7]              --\n\u2502    \u2502    \u2514\u2500Dropout: 3-51                [16, 2160, 7]             --\n\u2502    \u2502    \u2514\u2500Conv1d: 3-52                 [16, 360, 7]              777,960\n\u2502    \u2514\u2500ICB: 2-17                         [16, 7, 720]              --\n\u2502    \u2502    \u2514\u2500Conv1d: 3-53                 [16, 1080, 7]             1,167,480\n\u2502    \u2502    \u2514\u2500Conv1d: 3-54                 [16, 1080, 7]             3,500,280\n\u2502    \u2502    \u2514\u2500Conv1d: 3-55                 [16, 1080, 7]             5,833,080\n\u2502    \u2502    \u2514\u2500Conv1d: 3-56                 [16, 1080, 7]             8,165,880\n\u2502    \u2502    \u2514\u2500Tanh: 3-57                   [16, 1080, 7]             --\n\u2502    \u2502    \u2514\u2500Sigmoid: 3-58                [16, 1080, 7]             --\n\u2502    \u2502    \u2514\u2500ReLU: 3-59                   [16, 1080, 7]             --\n\u2502    \u2502    \u2514\u2500Tanh: 3-60                   [16, 1080, 7]             --\n\u2502    \u2502    \u2514\u2500Sigmoid: 3-61                [16, 1080, 7]             --\n\u2502    \u2502    \u2514\u2500ReLU: 3-62                   [16, 1080, 7]             --\n\u2502    \u2502    \u2514\u2500Tanh: 3-63                   [16, 1080, 7]             --\n\u2502    \u2502    \u2514\u2500Sigmoid: 3-64                [16, 1080, 7]             --\n\u2502    \u2502    \u2514\u2500ReLU: 3-65                   [16, 1080, 7]             --\n\u2502    \u2502    \u2514\u2500Tanh: 3-66                   [16, 1080, 7]             --\n\u2502    \u2502    \u2514\u2500Sigmoid: 3-67                [16, 1080, 7]             --\n\u2502    \u2502    \u2514\u2500ReLU: 3-68                   [16, 1080, 7]             --\n\u2502    \u2502    \u2514\u2500Dropout: 3-69                [16, 4320, 7]             --\n\u2502    \u2502    \u2514\u2500Conv1d: 3-70                 [16, 720, 7]              3,111,120\n\u251c\u2500RevIN: 1-17                            [16, 720, 7]              (recursive)\n==========================================================================================\nTotal params: 29,289,904\nTrainable params: 29,289,904\nNon-trainable params: 0\nTotal mult-adds (G): 3.21\n==========================================================================================\nInput size (MB):
…
nenc_in = configs.enc_in\ndevice = torch.device('cuda' if torch.cuda.is_available() else 'cpu')\nx = torch.randn(batch_size, seq_len, enc_in).to(device)\nmodel = model.to(device)\n# summary(model, input_data=x)\nsummary(model, input_size=(configs.seq_len, configs.enc_in), batch_size=batch_size, device=device.type)\n</code></pre> \u8f93\u51fa\uff1a Python<pre><code>----------------------------------------------------------------\n        Layer (type)               Output Shape         Param #\n================================================================\n             RevIN-1                [16, 96, 7]               0\n    ChebyKANLinear-2                    [16, 7]               0\n     ChebyKANLayer-3                [16, 96, 7]               0\n            Linear-4                  [16, 720]          69,840\n            Linear-5                  [16, 720]          69,840\n            Linear-6                  [16, 720]          69,840\n            Linear-7                  [16, 720]          69,840\n            Linear-8                  [16, 720]          69,840\n            Linear-9                  [16, 720]          69,840\n           Linear-10                  [16, 720]          69,840\n      block_model-11               [16, 7, 720]               0\n        LayerNorm-12                [16, 7, 96]             192\n           Linear-13               [16, 7, 192]          18,432\n          Dropout-14               [16, 7, 192]               0\n             ReLU-15               [16, 7, 192]               0\n           Linear-16                [16, 7, 96]          18,432\n          Dropout-17                [16, 7, 96]               0\n          Sigmoid-18                [16, 7, 96]               0\n        LayerNorm-19                [16, 7, 96]             192\ndct_channel_block-20                [16, 7, 96]               0\n        AvgPool1d-21                [16, 7, 48]               0\n           Linear-22                  [16, 360]          17,640\n           Linear-23                  [16, 360]          17,640\n           Linear-24                  [16, 360]          17,640\n           Linear-25                  [16, 360]          17,640\n           Linear-26                  [16, 360]          17,640\n           Linear-27                  [16, 360]          17,640\n           Linear-28                  [16, 360]          17,640\n      block_model-29               [16, 7, 360]               0\n        LayerNorm-30                [16, 7, 48]              96\n           Linear-31                [16, 7, 96]           4,608\n          Dropout-32                [16, 7, 96]               0\n             ReLU-33                [16, 7, 96]               0\n           Linear-34                [16, 7, 48]           4,608\n          Dropout-35                [16, 7, 48]               0\n          Sigmoid-36                [16, 7, 48]               0\n        LayerNorm-37                [16, 7, 48]              96\ndct_channel_block-38                [16, 7, 48]               0\n        AvgPool1d-39                [16, 7, 24]               0\n           Linear-40                  [16, 180]           4,500\n           Linear-41                  [16, 180]           4,500\n           Linear-42                  [16, 180]           4,500\n           Linear-43                  [16, 180]           4,500\n           Linear-44                  [16, 180]           4,500\n           Linear-45                  [16, 180]           4,500\n           Linear-46                  [16, 180]           4,500\n      block_model-47               [16, 7, 180]               0\n        LayerNorm-48                [16, 7, 24]              48\n           Linear-49                [16, 7, 48]           1,152\n          Dropout-50                [16, 7, 48]               0\n             ReLU-51                [16, 7, 48]               0\n           Linear-52                [16, 7, 24]           1,152\n          Dropout-53                [16, 7, 24]               0\n          Sigmoid-54                [16, 7, 24]               0\n        LayerNorm-55                [16, 7, 24]              48\ndct_channel_block-56                [16, 7, 24]               0\n        AvgPool1d-57                [16, 7, 12]               0\n           Linear-58                   [16, 90]           1,170\n           Linear-59                   [16, 90]           1,170\n           Linear-60                   [16, 90]           1,170\n           Linear-61                   [16, 90]           1,170\n           Linear-62                   [16, 90]           1,170\n           Linear-63                   [16, 90]           1,170\n           Linear-64                   [16, 90]           1,170\n      block_model-65                [16, 7, 90]               0\n        LayerNorm-66                [16, 7, 12]              24\n           Linear-67                [16, 7, 24]             288\n          Dropout-68                [16, 7, 24]               0\n             ReLU-69                [16, 7, 24]               0\n           Linear-70                [16, 7, 12]             288\n          Dropout-71                [16, 7, 12]               0\n          Sigmoid-72                [16, 7, 12]               0\n        LayerNorm-73                [16, 7, 12]              24\ndct_channel_block-74                [16, 7, 12]               0\n        AvgPool1d-75                 [16, 7, 6]               0\n   ChebyKANLinear-76                    [16, 7]               0\n    ChebyKANLayer-77                [16, 90, 7]               0\n           Conv1d-78               [16, 270, 7]          73,170\n           Conv1d-79               [16, 270, 7]         218,970\n           Conv1d-80               [16, 270, 7]         364,770\n           Conv1d-81               [16, 270, 7]         510,570\n             Tanh-82               [16, 270, 7]               0\n          Sigmoid-83               [16, 270, 7]               0\n             ReLU-84               [16, 270, 7]               0\n             Tanh-85               [16, 270, 7]               0\n          Sigmoid-86               [16, 270, 7]               0\n             ReLU-87               [16, 270, 7]               0\n             Tanh-88               [16, 270, 7]               0\n          Sigmoid-89               [16, 270, 7]               0\n             ReLU-90               [16, 270, 7]               0\n             Tanh-91               [16, 270, 7]               0\n          Sigmoid-92               [16, 270, 7]               0\n             ReLU-93               [16, 270, 7]               0\n          Dropout-94              [16, 1080, 7]               0\n           Conv1d-95               [16, 180, 7]         194,580\n              ICB-96               [16, 7, 180]               0\n           Conv1d-97               [16, 540, 7]         292,140\n           Conv1d-98               [16, 540, 7]         875,340\n           Conv1d-99               [16, 540, 7]       1,458,540\n          Conv1d-100               [16, 540, 7]       2,041,740\n            Tanh-101               [16, 540, 7]               0\n         Sigmoid-102               [16, 540, 7]               0\n            ReLU-103               [16, 540, 7]               0\n            Tanh-104               [16, 540, 7]               0\n         Sigmoid-105               [16, 540, 7]               0\n            ReLU-106               [16, 540, 7]               0\n            Tanh-107               [16, 540, 7]               0\n         Sigmoid-108               [16, 540, 7]               0\n            ReLU-109               [16, 540, 7]               0\n            Tanh-110               [16, 540, 7]               0\n         Sigmoid-111               [16, 540, 7]               0\n            ReLU-112               [16, 540, 7]               0\n         Dropout-113              [16, 2160, 7]               0\n          Conv1d-114               [16, 360, 7]         777,960\n             ICB-115               [16, 7, 360]               0\n          Conv1d-116              [16, 1080, 7]       1,167,480\n          Conv1d-117              [16, 1080, 7]       3,500,280\n          Conv1d-118              [16, 1080, 7]       5,833,080\n          Conv1d-119              [16, 1080, 7]       8,165,880\n            Tanh-120              [16, 1080, 7]               0\n         Sigmoid-121              [16, 1080, 7]               0\n            ReLU-122              [16, 1080, 7]               0\n            Tanh-123              [16, 1080, 7]               0\n         Sigmoid-124              [16, 1080, 7]               0\n            ReLU-125              [16, 1080, 7]               0\n            Tanh-126              [16, 1080, 7]               0\n         Sigmoid-127              [16, 1080, 7]               0\n            ReLU-128              [16, 1080, 7]               0\n            Tanh-129              [16, 1080, 7]               0\n         Sigmoid-130              [16, 1080, 7]               0\n            ReLU-131              [16, 1080, 7]               0\n         Dropout-132              [16, 4320, 7]               0\n          Conv1d-133               [16, 720, 7]       3,111,120\n             ICB-134               [16, 7, 720]               0\n           RevIN-135               [16, 720, 7]               0\n================================================================\nTotal params: 29,287,350\nTrainable params: 29,287,350\nNon-trainable params: 0\n----------------------------------------------------------------\nInput size (MB): 0.04\nForward/backward pass size (MB): 39.54\nParams size (MB): 111.72\nEstimated Total Size (MB): 151.30\n-------------------------------------------------------------
…
&gt;(B,nq,h*d_k)--&gt;(B,nk,h,d_k)--&gt;(B,h,d_k,nk)\n        # [2, 50, 64]-&gt;Linear(in_features=64, out_features=512, bias=True)-&gt;[2,50,512]-&gt;view-&gt;[2,50,8,64]-&gt;permute-&gt;[2,8,64,50]\n\n        v = self.fc_v(values).view(B, nk, self.h, self.d_v).permute(0, 2, 1, 3)  \n        # (B,N,C)--&gt;(B,nk,h*d_v)--&gt;(B,nk,h,d_v)--&gt;(B,h,nk,d_v)      \n        # [2, 50, 64]-&gt;Linear(in_features=64, out_features=512, bias=True)-&gt;[2,50,512]-&gt;view-&gt;[2,50,8,64]-&gt;[2,8,50,64]\n\n        att = torch.matmul(q, k) / np.sqrt(self.d_k)  # (B, h, nq, nk)\n        # q (2,8,50,64) k [2,8,64,50] -&gt; torch.matmul -&gt; [2, 8, 50, 50]\n\n        # \u5982\u679c\u9700\u8981\u4e3a\u6ce8\u610f\u529b\u77e9\u9635\u989d\u5916\u6dfb\u52a0\u4e00\u4e2a\u53c2\u6570\u77e9\u9635,\u90a3\u4e48\u6267\u884c\u9010\u70b9\u76f8\u4e58\u5373\u53ef\n        if attention_weights is not None: # attention_weights = None\n            att = att * attention_weights\n        # \u5982\u679c\u9700\u8981\u4e3a\u6ce8\u610f\u529b\u77e9\u9635\u6dfb\u52a0mask,\u90a3\u4e48\u5728\u5bf9\u5e94\u9700\u8981mask\u7684\u5730\u65b9\u586b\u5145\u4e3a\u8d1f\u65e0\u7a77\u6570\u503c,\u8fd9\u6837\u5728\u8ba1\u7b97softmax\u7684\u65f6\u5019,\u8d1f\u65e0\u7a77\u7684\u5f52\u4e00\u5316\u5f97\u5206\u5c06\u8d8b\u8fd1\u4e8e0\n        if attention_mask is not None: # attention_mask = None\n            att = att.masked_fill(attention_mask, -np.inf)\n        att = torch.softmax(att, -1) \n        # [2, 8, 50, 50] -&gt; torch.softmax -&gt; [2, 8, 50, 50]\n        # attn n_q d_q \u00d7 d_k n_k = n_q \u00d7 n_k \u5728 n_k \u5217\u8fdb\u884csoftmax\n\n        att=self.dropout(att)\n\n\n        out = torch.matmul(att, v).permute(0, 2, 1, 3).contiguous().view(B, nq, self.h * self.d_v)  \n        # (B,h,nq,nk)@(B,h,nk,d_v)=(B,h,nq,d_v)--&gt;(B,nq,h,d_v)--&gt;(B,nq,h*d_v)\n        # [2, 8, 50, 50] @ [2, 8, 50, 64] -&gt; [2, 8, 50, 64] -&gt; permute -&gt; [2,50,8,64] -&gt; contiguous -&gt; view -&gt; [2,50,512]\n        # \u8fd9\u91cc\u6709\u591a\u5934\u6ce8\u610f\u529b\u9700\u8981\u6ce8\u610f\u7684\u70b9\uff1a\u4e3a\u4ec0\u4e48\u8981\u8fdb\u884c concat \u548c Linear \u56e0\u4e3a\u6bcf\u4e2a\u5934\u5206\u522b\u5b66\u4e60\u4eba\u7684\u4e00\u4e2a\u7279\u5f81\uff0c\u6700\u540e\u7684\u6ce8\u610f\u529b\u662f\u9700\u8981\u4ea4\u4e92\u7684\n\n        out = self.fc_o(o
…
